#######################PARAMETERS######################## Dataset selection
	maxTrain: True
	max_trainData: 200
# train/test parameters	model_name: ResNetv2
	optimizer: SGD
	epochs: 50
	batch_size: 100
	seed: 80
	lr: 0.01
	weight_decay: 0.0001
# data preparation parameters
	dataset: PaviaU
	patch_size: 21
	band: 103
	num_classes: 9
	train_percent: 1.0
	val_percent: 0.0
	test_percent: 0.0

#############################  MODEL  ###################################

ResNetv2(
  (conv): Sequential(
    (0): Conv2d(103, 64, kernel_size=(7, 7), stride=(2, 2), padding=(3, 3), bias=False)
    (1): BatchNorm2d(64, eps=1e-05, momentum=0.1, affine=True, track_running_stats=True)
    (2): ReLU(inplace)
    (3): MaxPool2d(kernel_size=3, stride=2, padding=1, dilation=1, ceil_mode=True)
  )
  (relu): ReLU()
  (block1): Sequential(
    (0): Conv2d(64, 64, kernel_size=(1, 1), stride=(1, 1), bias=False)
    (1): BatchNorm2d(64, eps=1e-05, momentum=0.1, affine=True, track_running_stats=True)
    (2): ReLU()
    (3): Conv2d(64, 64, kernel_size=(3, 3), stride=(1, 1), padding=(1, 1), bias=False)
    (4): BatchNorm2d(64, eps=1e-05, momentum=0.1, affine=True, track_running_stats=True)
    (5): ReLU()
    (6): Conv2d(64, 256, kernel_size=(1, 1), stride=(1, 1), bias=False)
    (7): BatchNorm2d(256, eps=1e-05, momentum=0.1, affine=True, track_running_stats=True)
  )
  (downsample1): Sequential(
    (0): Conv2d(64, 256, kernel_size=(1, 1), stride=(1, 1), bias=False)
    (1): BatchNorm2d(256, eps=1e-05, momentum=0.1, affine=True, track_running_stats=True)
  )
  (block2): Sequential(
    (0): Conv2d(256, 128, kernel_size=(1, 1), stride=(1, 1), bias=False)
    (1): BatchNorm2d(128, eps=1e-05, momentum=0.1, affine=True, track_running_stats=True)
    (2): ReLU()
    (3): Conv2d(128, 128, kernel_size=(3, 3), stride=(1, 1), padding=(1, 1), bias=False)
    (4): BatchNorm2d(128, eps=1e-05, momentum=0.1, affine=True, track_running_stats=True)
    (5): ReLU()
    (6): Conv2d(128, 512, kernel_size=(1, 1), stride=(1, 1), bias=False)
    (7): BatchNorm2d(512, eps=1e-05, momentum=0.1, affine=True, track_running_stats=True)
  )
  (downsample2): Sequential(
    (0): Conv2d(256, 512, kernel_size=(1, 1), stride=(1, 1), bias=False)
    (1): BatchNorm2d(512, eps=1e-05, momentum=0.1, affine=True, track_running_stats=True)
  )
  (fc): Sequential(
    (0): Linear(in_features=18432, out_features=2048, bias=True)
    (1): Dropout(p=0.2)
    (2): ReLU(inplace)
    (3): Linear(in_features=2048, out_features=1024, bias=True)
    (4): Dropout(p=0.2)
    (5): ReLU(inplace)
    (6): Linear(in_features=1024, out_features=9, bias=True)
  )
  (Softmax): Softmax()
)
##############################################################################

Epoch 1/50| Time: 2.11s| Loss: 1.1521
Epoch 2/50| Time: 2.10s| Loss: 0.3816
Epoch 3/50| Time: 2.29s| Loss: 0.1584
Epoch 4/50| Time: 2.33s| Loss: 0.0825
Epoch 5/50| Time: 2.21s| Loss: 0.0441
Epoch 6/50| Time: 2.16s| Loss: 0.0266
Epoch 7/50| Time: 2.25s| Loss: 0.0614
…
