#######################PARAMETERS######################## cuda
	cuda: True
# train/test parameters	model_name: Pyramidal_ResNet
	optimizer: SGD
	epochs: 150
	batch_size: 100
	seed: 75
	lr: 0.001
	weight_decay: 0.0001
# data preparation parameters
	dataset: Indian_pines
	patch_size: 11
	band: 220
	num_classes: 16
# SimpleFC parameters
	FC_1: 500
	FC_2: 350
	FC_3: 150
	FC_4: 16

#############################  MODEL  ###################################

Pyramidal_ResNet(
  (Input_module): Sequential(
    (0): Conv2d(220, 220, kernel_size=(3, 3), stride=(1, 1), padding=(1, 1))
    (1): BatchNorm2d(220, eps=1e-05, momentum=0.1, affine=True, track_running_stats=True)
  )
  (Pyramidal_module_P1): Sequential(
    (0): BatchNorm2d(220, eps=1e-05, momentum=0.1, affine=True, track_running_stats=True)
    (1): Conv2d(220, 64, kernel_size=(1, 1), stride=(1, 1))
    (2): BatchNorm2d(64, eps=1e-05, momentum=0.1, affine=True, track_running_stats=True)
    (3): Conv2d(64, 64, kernel_size=(3, 3), stride=(1, 1), padding=(1, 1))
    (4): BatchNorm2d(64, eps=1e-05, momentum=0.1, affine=True, track_running_stats=True)
    (5): Conv2d(64, 220, kernel_size=(1, 1), stride=(1, 1))
    (6): BatchNorm2d(220, eps=1e-05, momentum=0.1, affine=True, track_running_stats=True)
    (7): ReLU()
    (8): BatchNorm2d(220, eps=1e-05, momentum=0.1, affine=True, track_running_stats=True)
    (9): Conv2d(220, 64, kernel_size=(1, 1), stride=(1, 1))
    (10): BatchNorm2d(64, eps=1e-05, momentum=0.1, affine=True, track_running_stats=True)
    (11): Conv2d(64, 64, kernel_size=(3, 3), stride=(1, 1), padding=(1, 1))
    (12): BatchNorm2d(64, eps=1e-05, momentum=0.1, affine=True, track_running_stats=True)
    (13): Conv2d(64, 225, kernel_size=(1, 1), stride=(1, 1))
    (14): BatchNorm2d(225, eps=1e-05, momentum=0.1, affine=True, track_running_stats=True)
    (15): ReLU()
    (16): BatchNorm2d(225, eps=1e-05, momentum=0.1, affine=True, track_running_stats=True)
    (17): Conv2d(225, 64, kernel_size=(1, 1), stride=(1, 1))
    (18): BatchNorm2d(64, eps=1e-05, momentum=0.1, affine=True, track_running_stats=True)
    (19): Conv2d(64, 64, kernel_size=(3, 3), stride=(1, 1), padding=(1, 1))
    (20): BatchNorm2d(64, eps=1e-05, momentum=0.1, affine=True, track_running_stats=True)
    (21): Conv2d(64, 230, kernel_size=(1, 1), stride=(1, 1))
    (22): BatchNorm2d(230, eps=1e-05, momentum=0.1, affine=True, track_running_stats=True)
    (23): ReLU()
  )
  (P1_ShortCut): Sequential(
    (0): BatchNorm2d(220, eps=1e-05, momentum=0.1, affine=True, track_running_stats=True)
    (1): Conv2d(220, 230, kernel_size=(1, 1), stride=(1, 1))
  )
  (Pyramidal_module_P2): Sequential(
    (0): BatchNorm2d(230, eps=1e-05, momentum=0.1, affine=True, track_running_stats=True)
    (1): Conv2d(230, 64, kernel_size=(1, 1), stride=(1, 1))
    (2): BatchNorm2d(64, eps=1e-05, momentum=0.1, affine=True, track_running_stats=True)
    (3): Conv2d(64, 64, kernel_size=(3, 3), stride=(2, 2), padding=(1, 1))
    (4): BatchNorm2d(64, eps=1e-05, momentum=0.1, affine=True, track_running_stats=True)
    (5): Conv2d(64, 235, kernel_size=(1, 1), stride=(1, 1))
    (6): BatchNorm2d(235, eps=1e-05, momentum=0.1, affine=True, track_running_stats=True)
    (7): ReLU()
    (8): MaxPool2d(kernel_size=2, stride=2, padding=0, dilation=1, ceil_mode=False)
    (9): BatchNorm2d(235, eps=1e-05, momentum=0.1, affine=True, track_running_stats=True)
    (10): Conv2d(235, 64, kernel_size=(1, 1), stride=(1, 1))
    (11): BatchNorm2d(64, eps=1e-05, momentum=0.1, affine=True, track_running_stats=True)
    (12): Conv2d(64, 64, kernel_size=(3, 3), stride=(1, 1), padding=(1, 1))
    (13): BatchNorm2d(64, eps=1e-05, momentum=0.1, affine=True, track_running_stats=True)
    (14): Conv2d(64, 240, kernel_size=(1, 1), stride=(1, 1))
    (15): BatchNorm2d(240, eps=1e-05, momentum=0.1, affine=True, track_running_stats=True)
    (16): ReLU()
    (17): BatchNorm2d(240, eps=1e-05, momentum=0.1, affine=True, track_running_stats=True)
    (18): Conv2d(240, 64, kernel_size=(1, 1), stride=(1, 1))
    (19): BatchNorm2d(64, eps=1e-05, momentum=0.1, affine=True, track_running_stats=True)
    (20): Conv2d(64, 64, kernel_size=(3, 3), stride=(1, 1), padding=(1, 1))
    (21): BatchNorm2d(64, eps=1e-05, momentum=0.1, affine=True, track_running_stats=True)
    (22): Conv2d(64, 245, kernel_size=(1, 1), stride=(1, 1))
    (23): BatchNorm2d(245, eps=1e-05, momentum=0.1, affine=True, track_running_stats=True)
    (24): ReLU()
  )
  (P2_ShortCut): Sequential(
    (0): BatchNorm2d(230, eps=1e-05, momentum=0.1, affine=True, track_running_stats=True)
    (1): Conv2d(230, 245, kernel_size=(3, 3), stride=(2, 2))
    (2): BatchNorm2d(245, eps=1e-05, momentum=0.1, affine=True, track_running_stats=True)
    (3): Conv2d(245, 245, kernel_size=(3, 3), stride=(1, 1))
  )
  (Pyramidal_module_P3): Sequential(
    (0): BatchNorm2d(245, eps=1e-05, momentum=0.1, affine=True, track_running_stats=True)
    (1): Conv2d(245, 64, kernel_size=(1, 1), stride=(1, 1))
    (2): BatchNorm2d(64, eps=1e-05, momentum=0.1, affine=True, track_running_stats=True)
    (3): Conv2d(64, 64, kernel_size=(3, 3), stride=(1, 1))
    (4): BatchNorm2d(64, eps=1e-05, momentum=0.1, affine=True, track_running_stats=True)
    (5): Conv2d(64, 250, kernel_size=(1, 1), stride=(1, 1))
    (6): BatchNorm2d(250, eps=1e-05, momentum=0.1, affine=True, track_running_stats=True)
    (7): ReLU()
    (8): BatchNorm2d(250, eps=1e-05, momentum=0.1, affine=True, track_running_stats=True)
    (9): Conv2d(250, 64, kernel_size=(1, 1), stride=(1, 1))
    (10): BatchNorm2d(64, eps=1e-05, momentum=0.1, affine=True, track_running_stats=True)
    (11): Conv2d(64, 64, kernel_size=(3, 3), stride=(1, 1), padding=(1, 1))
    (12): BatchNorm2d(64, eps=1e-05, momentum=0.1, affine=True, track_running_stats=True)
    (13): Conv2d(64, 255, kernel_size=(1, 1), stride=(1, 1))
    (14): BatchNorm2d(255, eps=1e-05, momentum=0.1, affine=True, track_running_stats=True)
    (15): ReLU()
    (16): BatchNorm2d(255, eps=1e-05, momentum=0.1, affine=True, track_running_stats=True)
    (17): Conv2d(255, 64, kernel_size=(1, 1), stride=(1, 1))
    (18): BatchNorm2d(64, eps=1e-05, momentum=0.1, affine=True, track_running_stats=True)
    (19): Conv2d(64, 64, kernel_size=(3, 3), stride=(1, 1), padding=(1, 1))
    (20): BatchNorm2d(64, eps=1e-05, momentum=0.1, affine=True, track_running_stats=True)
    (21): Conv2d(64, 260, kernel_size=(1, 1), stride=(1, 1))
    (22): BatchNorm2d(260, eps=1e-05, momentum=0.1, affine=True, track_running_stats=True)
    (23): ReLU()
  )
  (P3_ShortCut): Sequential(
    (0): BatchNorm2d(245, eps=1e-05, momentum=0.1, affine=True, track_running_stats=True)
    (1): Conv2d(245, 260, kernel_size=(3, 3), stride=(1, 1))
  )
  (classifier): Sequential(
    (0): Linear(in_features=260, out_features=16, bias=True)
  )
  (Softmax): Softmax()
)
##############################################################################

Epoch 1/150| Time: 1.68s| Loss: 1.8190
Epoch 2/150| Time: 1.64s| Loss: 0.8843
Epoch 3/150| Time: 1.65s| Loss: 0.5429
Epoch 4/150| Time: 1.67s| Loss: 0.3444
Epoch 5/150| Time: 1.65s| Loss: 0.2193
Epoch 6/150| Time: 1.65s| Loss: 0.1463
Epoch 7/150| Time: 1.64s| Loss: 0.1040
…
