#######################PARAMETERS######################## Dataset selection
	maxTrain: True
	max_trainData: 200
# train/test parameters	model_name: ResNet
	optimizer: SGD
	epochs: 100
	batch_size: 100
	seed: 80
	lr: 0.01
	weight_decay: 0.0001
# data preparation parameters
	dataset: PaviaU
	patch_size: 27
	band: 103
	num_classes: 9
	train_percent: 0.01
	val_percent: 0.0
	test_percent: 0.25

#############################  MODEL  ###################################

ResNet(
  (conv): Sequential(
    (0): Conv2d(103, 64, kernel_size=(7, 7), stride=(2, 2), padding=(3, 3), bias=False)
    (1): BatchNorm2d(64, eps=1e-05, momentum=0.1, affine=True, track_running_stats=True)
    (2): ReLU(inplace)
    (3): MaxPool2d(kernel_size=3, stride=2, padding=1, dilation=1, ceil_mode=True)
  )
  (relu): ReLU()
  (block1): Sequential(
    (0): Conv2d(64, 64, kernel_size=(1, 1), stride=(1, 1), bias=False)
    (1): BatchNorm2d(64, eps=1e-05, momentum=0.1, affine=True, track_running_stats=True)
    (2): ReLU()
    (3): Conv2d(64, 64, kernel_size=(3, 3), stride=(1, 1), padding=(1, 1), bias=False)
    (4): BatchNorm2d(64, eps=1e-05, momentum=0.1, affine=True, track_running_stats=True)
    (5): ReLU()
    (6): Conv2d(64, 256, kernel_size=(1, 1), stride=(1, 1), bias=False)
    (7): BatchNorm2d(256, eps=1e-05, momentum=0.1, affine=True, track_running_stats=True)
  )
  (downsample1): Sequential(
    (0): Conv2d(64, 256, kernel_size=(1, 1), stride=(1, 1), bias=False)
    (1): BatchNorm2d(256, eps=1e-05, momentum=0.1, affine=True, track_running_stats=True)
  )
  (block2): Sequential(
    (0): Conv2d(256, 128, kernel_size=(1, 1), stride=(1, 1), bias=False)
    (1): BatchNorm2d(128, eps=1e-05, momentum=0.1, affine=True, track_running_stats=True)
    (2): ReLU()
    (3): Conv2d(128, 128, kernel_size=(3, 3), stride=(1, 1), padding=(1, 1), bias=False)
    (4): BatchNorm2d(128, eps=1e-05, momentum=0.1, affine=True, track_running_stats=True)
    (5): ReLU()
    (6): Conv2d(128, 512, kernel_size=(1, 1), stride=(1, 1), bias=False)
    (7): BatchNorm2d(512, eps=1e-05, momentum=0.1, affine=True, track_running_stats=True)
  )
  (downsample2): Sequential(
    (0): Conv2d(256, 512, kernel_size=(1, 1), stride=(1, 1), bias=False)
    (1): BatchNorm2d(512, eps=1e-05, momentum=0.1, affine=True, track_running_stats=True)
  )
  (fc): Sequential(
    (0): Linear(in_features=16384, out_features=2048, bias=True)
    (1): Dropout(p=0.2)
    (2): ReLU(inplace)
    (3): Linear(in_features=2048, out_features=1024, bias=True)
    (4): Dropout(p=0.2)
    (5): ReLU(inplace)
    (6): Linear(in_features=1024, out_features=9, bias=True)
  )
  (Softmax): Softmax()
)
##############################################################################

Epoch 1/100| Time: 2.42s| Loss: 1.1575
Epoch 2/100| Time: 2.44s| Loss: 0.2693
Epoch 3/100| Time: 2.41s| Loss: 0.1222
Epoch 4/100| Time: 2.45s| Loss: 0.1356
Epoch 5/100| Time: 2.43s| Loss: 0.0552
Epoch 6/100| Time: 2.41s| Loss: 0.0223
Epoch 7/100| Time: 2.59s| Loss: 0.0372
…
